…
 'output_dir': '/gpfs/mira-home/apeck/CANDLE_testing/avery_modified_results/run3/save/EXP000/RUN000',
 'rng_seed': 2017,
 'run_id': 'RUN000',
 'scaling': 'std',
 'scramble': False,
 'shuffle': False,
 'subsample': 'naive_balancing',
 'test_cell_split': 0.15,
 'timeout': -1,
 'train_bool': True,
 'validation_split': 0.1,
 'verbose': None,
 'workers': 1}
[1000, 500, 100, 50]
_________________________________________________________________
Layer (type)                 Output Shape              Param #   
=================================================================
dense_1 (Dense)              (None, 1000)              29533000  
_________________________________________________________________
activation_1 (Activation)    (None, 1000)              0         
_________________________________________________________________
dropout_1 (Dropout)          (None, 1000)              0         
_________________________________________________________________
dense_2 (Dense)              (None, 500)               500500    
_________________________________________________________________
activation_2 (Activation)    (None, 500)               0         
_________________________________________________________________
dropout_2 (Dropout)          (None, 500)               0         
_________________________________________________________________
dense_3 (Dense)              (None, 100)               50100     
_________________________________________________________________
activation_3 (Activation)    (None, 100)               0         
_________________________________________________________________
dropout_3 (Dropout)          (None, 100)               0         
_________________________________________________________________
dense_4 (Dense)              (None, 50)                5050      
_________________________________________________________________
activation_4 (Activation)    (None, 50)                0         
_________________________________________________________________
dropout_4 (Dropout)          (None, 50)                0         
_________________________________________________________________
dense_5 (Dense)              (None, 1)                 51        
=================================================================
Total params: 30,088,701
Trainable params: 30,088,701
Non-trainable params: 0
_________________________________________________________________
Epoch 1/1

   100/900100 [..............................] - ETA: 10:31:35 - loss: 1.7390
   200/900100 [..............................] - ETA: 5:24:18 - loss: 1.7258 
   300/900100 [..............................] - ETA: 3:39:27 - loss: 1.5228
…
